examples/deepves_szabo_berezhkovskii_files/bias_model.pt (torch, 19571 bytes, 6 tensors)

weight f8 [48, 1]
0.5228614185584426 -0.28983579829318895 0.635832870891441 -0.6788293842664046 -0.430522560375908 0.42190551409410987 -1.2269725678563277 0.7504729358960994
-0.8746933597927943 -0.9330012976050716 1.1712496805424517 0.6672755195576703 -0.008494503007973856 0.5128645945123138 -0.7752298519856552 -1.2689295384625219
0.551326367338315 -0.6162120818659474 0.2850411510949654 -0.3142789529099072 0.516315449043525 -0.6150769293420632 -0.48061483284174955 0.31584535006998005
-0.7745706250072711 -1.2897762260883299 1.1367298424549588 -0.10948321390495219 1.0323763073816559 -0.6072605006909428 -0.636381432114104 -0.6579057260367738
-0.645817979580355 0.8760873515582495 -0.6670294872905068 1.257103032077437 0.4802760620170244 -1.0884277690128266 1.163312940701038 0.34342964755550515
0.2862068221102466 -0.7160907304772534 -0.17211616625392426 0.3112914876024456 -0.9890939904746863 0.74964501659847 -0.22619712061685504 -0.017168659909294837
00000000: c68e a1de 47bb e03f 7046 b872 ab8c d2bf
00000010: bd6a 462d be58 e43f e69d 9f66 f8b8 e5bf
00000020: 2d4d 407f ae8d dbbf 3b52 42fc 7f00 db3f
00000030: 5a83 c0fc ada1 f3bf 879e 86d1 df03 e83f
00000040: 47d4 caed 7cfd ebbf ebdb 8a89 25db edbf
00000050: 9e15 164e 70bd f23f c47d bd30 525a e53f
00000060: 4f90 ebe4 9065 81bf 329d 9602 6369 e03f
00000070: 7329 a5d5 aece e8bf 9dff 490f 894d f4bf
00000080: 597f a431 77a4 e13f 4d75 6066 02b8 e3bf
00000090: 7ee4 7d3d 1d3e d23f 5f6d 2478 251d d4bf
000000a0: c3f7 01fa a785 e03f 618b 01d0 b5ae e3bf
000000b0: d2c7 41b7 64c2 debf 283b 496a cf36 d43f
000000c0: fd26 db55 48c9 e8bf a752 6365 eca2 f4bf
000000d0: 53b3 9ba1 0b30 f23f 30c8 2e87 1707 bcbf
000000e0: 4ae9 d504 9d84 f03f 8ed8 d392 ad6e e3bf
000000f0: 6bc6 d697 3c5d e4bf 04bb 254f 900d e5bf
00000100: ebec ae77 8aaa e4bf d238 6c57 e808 ec3f
00000110: 072c 2c39 4e58 e5bf ba99 a711 181d f43f
00000120: e18b dace d7bc de3f 4a7e 7f3c 336a f1bf
00000130: 5731 b507 ee9c f23f a792 2e58 c0fa d53f
00000140: 22c2 366b 3651 d23f 31cb 8b1b 37ea e6bf
00000150: 5d35 960c e707 c6bf f6a4 b121 33ec d33f
00000160: 0449 b870 a8a6 efbf 36cb bc8b 17fd e73f
00000170: 5cd7 bff9 06f4 ccbf c067 4e43 a994 91bf

bias f8 [48]
0.07394242732952644 0.3396818656715961 -0.8835401041691455 -0.27037853482275187 0.06715574524586927 0.9856015051931828 1.0145905814565266 0.14899472715025155
-0.22935685442812762 -0.5610483823649024 -0.4253295886993017 -0.034532104370749134 0.9254177200929565 0.9231295500348743 -0.1699452472042963 0.5366496971936598
-0.7185203014998807 -0.4054921073063063 -0.4473490112695109 0.7166345316368962 -0.7133793749406456 0.02399486155245156 0.2044457240317588 0.8500756903446184
1.3025812790934082 0.5568897450585046 0.6643124324507886 -0.9715224526852642 0.25359055560125116 -0.15099279718838426 -0.21582489233497815 0.9878406012315709
-0.626975267416759 0.646698236757568 0.33647378805934663 0.7450342199159325 0.6166368649925666 0.960489686051695 0.014345009456411349 0.6280203029587272
0.6171663846538678 0.6622295041011662 1.266355090445517 -0.3179906293681847 -0.1068458513362506 -0.7695344272889665 0.5264979924135968 -0.41437926003241676
00000000: d4cb 2a13 e4ed b23f 2ca4 0602 59bd d53f
00000010: 9a8c 83e5 f545 ecbf d8a9 26c5 e14d d1bf
00000020: cdcb 9171 1e31 b13f d42d f62a 0c8a ef3f
00000030: 6cf7 6255 c33b f03f cd81 315c 4212 c33f
00000040: 45ed 70be 905b cdbf 0464 b7bc 1bf4 e1bf
00000050: 3604 5f98 9938 dbbf 1c6d de25 31ae a1bf
00000060: 2a05 5e9f 059d ed3f 13df 6bfb 468a ed3f
00000070: fd31 6d0f c4c0 c5bf c05c 5bfc 3b2c e13f
00000080: 8e87 8e49 1efe e6bf 59ab ea2a 95f3 d9bf
00000090: 243b 53bf 5da1 dcbf 6712 928a abee e63f
000000a0: 125a a0fb 00d4 e6bf df2e 8fe6 1b92 983f
000000b0: 4200 4309 472b ca3f c9f3 24ef d133 eb3f
000000c0: 9968 a177 5fd7 f43f 3821 5071 0ad2 e13f
000000d0: 9f79 7625 0c42 e53f 049d 3341 b616 efbf
000000e0: 1f70 b8e1 d33a d03f a286 ed62 bb53 c3bf
000000f0: e8e7 1e6b 26a0 cbbf 1b6b 7ee4 639c ef3f
00000100: 3296 9e6f 2e10 e4bf d825 2880 c0b1 e43f
00000110: b345 eb5a c988 d53f dc12 1e01 52d7 e73f
00000120: 54d5 143c 7dbb e33f 4598 b7dd 54bc ee3f
00000130: 320c cf93 ea60 8d3f dcd0 cd08 be18 e43f
00000140: e6ec c8b7 d3bf e33f 21f2 d1ed fb30 e53f
00000150: c962 298e fd42 f43f 2888 645e f559 d4bf
00000160: 5ad5 33ed 3f5a bbbf 3b45 cba9 06a0 e8bf
00000170: 0a6f 5a51 12d9 e03f d8b6 7e96 3085 dabf

weight f8 [24, 48]
0.04406840174346882 0.07783267800823532 -0.11175964233126273 -0.10637285634023928 -0.0267541563222949 -0.09284865672645234 -0.03522480423234546 -0.03939358977307322
0.09870317564776396 0.017701374716618756 0.05255441092838517 -0.03446373005286062 -0.08822555474954984 0.026920686445567915 0.07921139164255755 -0.027661051642986753
-0.12229670127619938 0.06235469343069941 -0.04780533608261012 -0.10860689252349673 0.01006150874010181 0.12365231091214446 -0.10488565892532076 0.01611370914594526
0.030046801439159943 -0.1275146374652035 0.06467149482697851 0.0013476133840335802 -0.05809018444329596 -0.02867643789025162 -0.11840626109098866 -0.1342759879699178
0.13650870257212566 0.023639700345382264 0.0004562811203010497 0.009663628599064417 -0.04244587339607976 0.04992171146059465 0.12378099590771063 -0.10862062255641408
0.04038469489713459 0.01472851233458064 -0.01199687368159208 0.024873162779459335 -0.11501872134779406 0.010314877442084175 0.14107763843054588 0.030136818670092796
0.15168920803801206 0.028110746472181626 0.06576919793228164 0.192377954971505 0.1573659678291186 0.05581091817749838 -0.002538558437650788 0.0008528850015793571
0.275302499191177 0.11841177831721639 -0.03625210974994799 0.23513029615265663 -0.0005378955035451414 0.08623141444568311 0.06710581944413138 0.06474871662711533
-0.08550899563364961 0.19690414340403814 -0.02443135293550408 0.12374986995505054 -0.1237532109267308 0.2724357351825396 0.2785864059443898 0.043258864959453656
0.2519859854022829 0.03306828154213354 0.14549418442050996 -0.10518001403996977 0.09146125118956505 0.0581751103438723 0.18546469694729473 0.2165623280128359
0.09112570800444782 0.07905485608326517 0.2090656945191179 -0.0029760688475702355 0.24908940212306896 0.04722757727598642 0.036542133664610274 0.08653310325060642
0.05732469109480275 0.1636075399064187 0.17727103939377942 0.13694968213490144 0.2787100306994843 0.005000181455441399 0.058724973286819596 -0.05751686853159518
0.08103433700806759 -0.0035448115301811023 0.06437186886119414 0.14219384141235575 -0.12352622040010651 -0.08889012799807616 0.09259364483438459 0.055192570692133014
-0.015803336894841452 0.07808732505686841 0.11360123689622975 -0.1067247174828623 -0.06165063001547108 0.0013049991485042933 0.1185630352080097 -0.021288489180714437
0.011966157726244903 -0.07644205780885548 -0.03225604126693099 0.09942359178204152 -0.02866721478629221 -0.12111616739223426 -0.1420949128846622 0.12070145017023493
-0.14240244059340323 -0.012441227228001589 -0.1046535208124848 -0.053313490068984684 0.02327075690989394 -0.10888106941934411 -0.07897946457710221 -0.14374694712945046
-0.07270692117118321 -0.1163905680536744 0.1272108174611784 0.017727939358302497 -0.11501560349279892 -0.07448249258684331 -0.13989249783099253 -0.1024754636974656
-0.049709347764588505 -0.1298236784320429 -0.11462477923833829 0.022359661571323852 -0.13002846520552822 -0.11483386948755483 0.023191304175151528 0.0029906431168975067
0.13795440991260732 -0.02507248993248401 -0.1093623489297223 -0.08728330948987073 -0.08359852355623199 0.1284418153600589 -0.01686784014048484 -0.10645483906728029
0.09215401696856618 -0.06203802201417004 0.007873610375320805 0.028126362416101336 -0.053776588685225904 -0.11033370869478655 -0.05148006912718352 -0.019170878140740005
-0.046228197847817065 0.024126676262404723 -0.10586701706541324 0.137864760442529 -0.027892543704396755 0.13023941617338836 0.012656623420498031 0.010226153452301323
-0.1369714707226503 -0.07819011847513883 -0.08740680836236212 -0.06928914876378767 -0.12960083438895525 -0.0661176504832521 -0.09438457994169558 0.02737874426313483
-0.1383185381171341 -0.0034579414420880805 -0.08165878830102648 -0.1427137183053161 0.14400179314920036 0.07855843216092628 -0.09816841306845053 0.0036363866834517033
-0.1294151164589939 0.039110103526919876 -0.09424075667816081 -0.13180225505625381 0.11410912910826126 0.14222686531317213 0.09272635633343279 -0.017353762290340302
0.30416913954219715 0.27358066329429376 0.0141259879999448 0.23936381571842003 0.36165876489081333 0.3551873554958107 0.2669744156724973 0.3817521983743549
0.18743652191914034 0.15069149307176255 0.26340374378524245 0.4389669919882481 0.31089895692782693 0.3534399556214746 0.19700814462258653 0.4099039586162909
-0.04750459876990963 0.18209465417965445 0.08237519882802904 0.3170887404595266 -0.048596239672239305 0.22129490365057358 0.4110248616686694 0.36890424218418505
0.17916692101723986 0.4194862001731141 0.3204210687357079 0.12466150669897608 0.40184238957792107 0.24176285814641166 0.27163588436024116 0.13425100379238122
0.1729423961249517 0.34232111163059276 0.298123683464436 0.3540676958315557 0.19886890491780648 0.279718905680871 0.3353539844239537 0.33021862742791636
0.29758761270825773 0.14253495350079032 0.3323242711547277 -0.046954220992585866 0.44272730002384314 -0.06375697014949204 0.19146870230968877 -0.12371293554622563
0.29056757933642385 0.2685030362767318 -0.058942745894548176 0.22131784596286685 0.3819191267108137 0.13084419953179238 0.14399552232855414 0.20011123123480098
0.4232596372263347 0.21416968721747134 0.25674031204460285 0.44578751642366377 0.24928294116983427 0.27478459774256014 0.20391836160704516 0.28071949383618683
00000000: 70e5 8c30 2290 a63f 0600 9ba6 d7ec b33f
00000010: 6c4f d3a8 479c bcbf cfd6 2963 403b bbbf
00000020: d4cc be09 7165 9bbf de1d 1ef8 edc4 b7bf
00000030: b631 5f4c fc08 a2bf d8a9 7e87 652b a4bf
00000040: 2622 6b7f 9c44 b93f 702b 0226 4f20 923f
00000050: ec5a 6568 69e8 aa3f 8e4e f3e2 3aa5 a1bf
00000060: 3f1e 5230 f395 b6bf 6874 7aaf 1891 9b3f
00000070: 8a4f 93a0 3247 b43f cce7 b7c0 2d53 9cbf
00000080: 46d4 632c d64e bfbf 6cec 1252 f4ec af3f
00000090: 8823 19e6 f079 a8bf f633 824b a9cd bbbf
000000a0: c0b1 e5d7 209b 843f a846 7187 ada7 bf3f
000000b0: 7856 e75a c9d9 babf e844 32b7 1c80 903f
000000c0: 0055 1fb6 96c4 9e3f f350 d64e 6652 c0bf
000000d0: 16eb 43a3 4f8e b03f 8074 5fda 4c14 563f
000000e0: e21c ce24 ffbd adbf 981c 9e2b 5b5d 9dbf
000000f0: e305 076b df4f bebf 7804 7ca0 f42f c1bf
00000100: 7855 95fe 1d79 c13f 708d 7b6f 0135 983f
00000110: 0040 4e7d 20e7 3d3f b070 5946 86ca 833f
00000120: 0232 2c2c 77bb a5bf f0cd 2aac 568f a93f
00000130: a838 4a81 1cb0 bf3f 9c0b 8da5 8fce bbbf
00000140: d02b af7f 4dad a43f 90b5 5d76 fb29 8e3f
00000150: 80f6 ee20 d191 88bf b052 beb2 5978 993f
00000160: c4d3 9dee dd71 bdbf 503f 356a f71f 853f
00000170: 20c8 a001 d50e c23f 88c6 5faa 2fdc 9e3f
00000180: a6f6 d64d 8d6a c33f ea81 0e43 10c9 9c3f
00000190: 800b 340a 40d6 b03f 0078 8940 d79f c83f
000001a0: 802b aa6a 9124 c43f 5e07 aaa8 3f93 ac3f
000001b0: a28c ff2e becb 64bf 6c35 3298 84f2 4b3f
000001c0: 7c1f a25f 8e9e d13f d869 55fb 3b50 be3f
000001d0: 83f5 92f3 a28f a2bf 5621 23e2 bf18 ce3f
000001e0: 5091 56cc 31a0 41bf 9499 ee10 4313 b63f
000001f0: 5e42 e2d3 d82d b13f 2716 5f34 5f93 b03f
00000200: 1ca5 c2e3 eae3 b5bf a701 2fac 2734 c93f
00000210: 508b 6b57 8804 99bf 8f58 574c 12ae bf3f
00000220: 748e b459 4aae bfbf f2b9 374b 966f d13f
00000230: 9f0b a913 5cd4 d13f 439f 86a4 0626 a63f
00000240: d299 96d3 8920 d03f e84a 8467 53ee a03f
00000250: 7711 ecad 8d9f c23f f696 7ed0 13ed babf
00000260: 48de b52a 016a b73f 997a bcc8 20c9 ad3f
00000270: 54c0 f9a3 4ebd c73f 372d 2e7a 50b8 cb3f
00000280: fd35 b4af 0354 b73f 53b5 7765 f03c b43f
00000290: eb6a 5628 aac2 ca3f 82e4 decb 4461 68bf
000002a0: 080b f359 29e2 cf3f f845 bd87 362e a83f
000002b0: b6f7 078a a6b5 a23f 3c95 7b90 0827 b63f
000002c0: 4fce 0273 a959 ad3f 7677 a384 17f1 c43f
000002d0: ecb2 5c42 d1b0 c63f 90c6 fb32 9187 c13f
000002e0: e4f8 ba98 62d6 d13f c0f6 33fd 117b 743f
000002f0: e262 731f 3311 ae3f 3c81 9fda d972 adbf
00000300: 467d 4d93 aabe b43f 80ac f632 020a 6dbf
00000310: 068e 8abf ac7a b03f c682 4765 6833 c23f
00000320: 5723 d114 6a9f bfbf b861 b0e0 80c1 b6bf
00000330: 2891 6194 37b4 b73f c0b2 355c 3342 ac3f
00000340: 9828 86fc bf2e 90bf 76f3 59eb 87fd b33f
00000350: fc23 417d f814 bd3f 0284 43a3 4f52 bbbf
00000360: fc73 63df ab90 afbf 002b 812a 9061 553f
00000370: 389f bba6 255a be3f 98ea 3f53 a6cc 95bf
00000380: 9076 be80 b681 883f 37f6 53ea b491 b3bf
00000390: b806 ae24 dd83 a0bf e89b 2713 d373 b93f
000003a0: e4eb e537 f05a 9dbf 0d6d f719 7801 bfbf
000003b0: 7e40 e285 2a30 c2bf 4899 0f4d 4ae6 be3f
000003c0: 6010 9c40 3e3a c2bf d0ed 8740 c97a 89bf
000003d0: 5006 4db9 92ca babf 8256 90e0 e74b abbf
000003e0: f04e 860f 4ad4 973f 3441 4f38 a1df bbbf
000003f0: ed0b 6a89 ff37 b4bf fc10 69ca 4c66 c2bf
00000400: 4c82 9fb8 eb9c b2bf 0678 5ab3 c5cb bdbf
00000410: 5aba 58ae 7148 c03f 78d8 13df 4527 923f
00000420: 9f01 889f a971 bdbf 54f9 c8dd 4811 b3bf
00000430: 0fe7 9153 ffe7 c1bf ce19 39fd d43b babf
00000440: e6a6 e8ed 8073 a9bf 7c57 8ef2 0f9e c0bf
00000450: 5bcf 23ae 0c58 bdbf 203a cb7c 73e5 963f
00000460: 33ac cdd2 c5a4 c0bf 0214 eca1 c065 bdbf
00000470: 107a ef13 76bf 973f 80d3 314c d57f 683f
00000480: b8f1 7477 7da8 c13f 6040 2851 9aac 99bf
00000490: 3820 11c0 2bff bbbf 58e2 beef 3258 b6bf
000004a0: a0fb aa7c b666 b5bf 7a85 340a c870 c03f
000004b0: 28b8 0797 cd45 91bf 5a7f 4bd4 9f40 bbbf
000004c0: 9034 13d9 6797 b73f 5a9b 5197 72c3 afbf
000004d0: a0f1 8118 0a20 803f 602e ee3a 28cd 9c3f
000004e0: fa10 63e3 9a88 abbf 5991 7d76 d43e bcbf
000004f0: e219 987a 985b aabf 78ae 99da 87a1 93bf
00000500: d09b d1eb 38ab a7bf a067 08d6 a9b4 983f
00000510: d061 05d0 191a bbbf 828e af6e 8da5 c13f
00000520: 20f0 0cec dc8f 9cbf f6b2 8e68 afab c03f
00000530: d0c1 593d b7eb 893f e0d0 2115 73f1 843f
00000540: 2691 9ef9 4788 c1bf 2399 b881 4404 b4bf
00000550: a634 5de7 4a60 b6bf 507c e803 efbc b1bf
00000560: 6210 9e98 c296 c0bf ae90 831a 16ed b0bf
00000570: d0a5 187c 9629 b8bf 88e3 dc6c 2c09 9c3f
00000580: 2762 d2fe 6bb4 c1bf c0d1 f72c d453 6cbf
00000590: d113 2f21 97e7 b4bf fceb 6770 7144 c2bf
000005a0: f011 1298 a66e c23f 60ca f4c8 671c b43f
000005b0: 2c14 a1ab 9021 b9bf 4070 313c 0eca 6d3f
000005c0: 1253 66ae ac90 c0bf 3cbe 2e4f 3d06 a43f
000005d0: ea0b e287 2920 b8bf 7eb9 8073 e5de c0bf
000005e0: 14ed b181 4136 bd3f 5efb 906b 7d34 c23f
000005f0: fce8 ed1b eabc b73f 308f ff45 2fc5 91bf
00000600: 0e51 b2d6 8177 d33f caaf 6a78 5882 d13f
00000610: c01b de03 16ee 8c3f 049e 2d38 79a3 ce3f
00000620: 9323 e1cd 6a25 d73f b4a9 f3be 63bb d63f
00000630: 4ba7 0bdc 1b16 d13f d269 ccc5 a06e d83f
00000640: 32fe db81 ebfd c73f 2caa 43dd db49 c33f
00000650: aee6 4c60 9bdb d03f b73b a702 0918 dc3f
00000660: d564 17bd c4e5 d33f 779c 9f9e c29e d63f
00000670: 0c8e 1919 9037 c93f 8c81 30d0 dd3b da3f
00000680: beb2 40d4 8552 a8bf 9930 3dac e04e c73f
00000690: 22c7 f780 8a16 b53f 2006 8d92 2e4b d43f
000006a0: 08a2 3338 9be1 a8bf 08b0 f932 6453 cc3f
000006b0: 556e ad38 3b4e da3f ec59 e289 209c d73f
000006c0: c4a3 2511 f1ee c63f 387a b7a5 dcd8 da3f
000006d0: b9d4 ca5e c781 d43f 9499 5706 d1e9 bf3f
000006e0: ec8d 5824 c9b7 d93f 6d2b 90d8 15f2 ce3f
000006f0: 55d3 ef79 7b62 d13f 5929 5f0b 232f c13f
00000700: ea69 b9f7 f922 c63f bec2 cbce 96e8 d53f
00000710: c723 a95b 7514 d33f b1a9 8a8d 0ba9 d63f
00000720: 9f1a 6849 8974 c93f 5639 fe1f eae6 d13f
00000730: 84c9 eb8e 7076 d53f 634e 554f 4d22 d53f
00000740: 24b5 11ea ac0b d33f b250 e9d9 953e c23f
00000750: adb3 1105 cd44 d53f 3406 2537 620a a8bf
00000760: b785 a9e2 a455 dc3f 4322 af75 6052 b0bf
00000770: 9657 50e3 0b82 c83f bf60 43a4 a6ab bfbf
00000780: e6c7 a1c2 a898 d23f 60db eb5b 272f d13f
00000790: 2034 e85b be2d aebf 4041 37a7 2454 cc3f
000007a0: 1726 bceb 5c71 d83f d81f eeb2 80bf c03f
000007b0: 43f6 95fd 716e c23f 279e dbac 3e9d c93f
000007c0: d1a6 e696 af16 db3f 1d61 328d e969 cb3f
000007d0: 49f8 f2ea 6e6e d03f fc4c 005d c887 dc3f
000007e0: 7737 e3df 80e8 cf3f 86ec 2f23 1296 d13f
000007f0: 15fd 1333 ff19 ca3f f511 58e5 4ef7 d13f

bias f8 [24]
0.02658679296722319 0.027737978763467373 -0.00022288259988109682 0.020959255951448957 0.3163170556693624 0.3439031086894336 0.1752403664861987 -0.06095714367902244
-0.000276010069632777 0.315153250700166 -0.14834871449088652 0.09495886311511072 0.15316382543088009 0.00608687406179878 -0.0706545105880762 -0.15232065140403359
0.3826051959434562 0.3547982192031031 0.2857422266095937 0.13740856156894546 0.2665440726110992 0.10451945938707684 0.18254198371312588 0.1827260438063903
00000000: b8f0 3279 9139 9b3f 99be 953e 5867 9c3f
00000010: 007c 65f4 b236 2dbf 189b 70db 5776 953f
00000020: 4415 51e4 893e d43f 2116 342f 8202 d63f
00000030: cda6 7fbd 466e c63f e831 1e55 c635 afbf
00000040: deca f138 ae16 32bf 300f 3f8a 782b d43f
00000050: 052d 9236 17fd c2bf 2974 8b5b 394f b83f
00000060: faf3 934a df9a c33f 2018 7cd0 8cee 783f
00000070: 8c69 4afc 6916 b2bf 2793 243c 3e7f c3bf
00000080: 14d6 f680 9a7c d83f eb01 0a97 03b5 d63f
00000090: 98f6 97c3 9949 d23f d583 108f 9a96 c13f
000000a0: 23ab b3de 0e0f d13f cff3 dc8b c9c1 ba3f
000000b0: 87f0 1825 895d c73f 0251 2327 9163 c73f

weight f8 [1, 24]
0.13619443382046012 -0.19634993954458707 -0.07987016338526907 0.15082800501106255 -0.3757999838236874 -0.39456678558064967 -0.4676179337560199 0.0020800552262912483
0.014164460806019602 -0.43546022931233347 0.019121304176693082 0.10096888986309521 -0.36987718713388235 0.09263537892763005 0.12261794665202078 0.16424854625020063
-0.31700391843928577 -0.4108248370894557 -0.5162865573892269 0.11655570894967585 -0.33507716113970104 0.08658741147433091 -0.33743588529067303 -0.4858076989035049
00000000: 7ffb 93b7 d16e c13f ae31 75ac fe21 c9bf
00000010: e778 aafb 5e72 b4bf c5f5 6b02 554e c33f
00000020: 540b 1760 1b0d d8bf f107 0a0c 9540 d9bf
00000030: 3255 20c5 73ed ddbf a326 7725 310a 613f
00000040: f02a 6bbf 4102 8d3f 7fba e694 94de dbbf
00000050: 3810 6200 8994 933f 841b e0df 18d9 b93f
00000060: 1fb2 915d 11ac d7bf 765d f2c2 f3b6 b73f
00000070: 02ea c5c6 e363 bf3f 2ab3 47ab 1806 c53f
00000080: 2aa3 99cd ca49 d4bf 66c2 eb41 f44a dabf
00000090: ad3c eb62 6b85 e0bf 02d8 194e 98d6 bd3f
000000a0: 85d1 2e7a e771 d5bf 480d 87b4 972a b63f
000000b0: f27e f4ae 8c98 d5bf 5be0 bb2c 7917 dfbf

bias f8 [1]
-0.11336611444789292
00000000: 393e 07ca 8f05 bdbf
